model.pt (torch, 239227 bytes, 8 tensors)

decoder.0.weight f4 [256, 63]
0.23622537 -0.13009182 -0.09135178 -0.004896204 0.0032570271 0.49816012 0.0668884 -0.09949068
0.32820714 -0.13043422 -0.033630718 0.15723734 -0.015041068 0.24079156 0.10675095 -0.0153980665
0.056130927 -0.21229301 0.04033954 0.16426677 -0.2575817 0.005693181 0.23217995 -0.26092607
0.017946158 0.5122753 -0.14276277 -0.101555906 0.010064093 -0.22324392 -0.13136528 0.22840263
0.166921 0.16265038 0.032622796 -0.17313054 0.23575905 0.11653409 -0.055878323 -0.007890197
0.004121705 -0.08932248 -0.06901393 -0.03157231 0.23270956 -0.0868199 -0.098706685 -0.030230872
0.014742022 0.06859551 -0.11433564 0.18374747 0.05852403 -0.012894765 -0.26600114 0.07090834
0.17504637 -0.056244116 -0.25890973 0.06955845 0.06298967 -0.38880134 -0.18160729 0.1113364
0.14263393 0.082536995 0.21344124 0.06614078 0.09846034 0.28044537 -0.031245518 -0.051336598
0.090848915 0.21171497 0.066516705 0.0009809984 0.16428642 -0.03243061 0.024671018 -0.17177531
0.041520517 0.12090975 -0.072481416 0.15676378 0.07667047 0.21496786 0.058088277 0.06407007
0.42848328 0.0014986093 0.12308095 -0.091724925 -0.101116136 0.08655353 -0.1841248 0.21619764
0.007929981 -0.16856353 0.06267979 -0.05150534 -0.21930084 -0.13781078 -0.035004076 0.009140321
-0.17510074 0.09944141 -0.17927113 0.030811781 0.15812151 -0.18315226 -0.08010039 0.08324411
-0.249893 -0.504203 -0.006487644 0.0146859065 -0.34850842 -0.092815205 -0.07101221 -0.07338348
0.07653074 -0.2058668 -0.27460036 -0.14338507 -0.20632641 -0.38385248 -0.09096536 -0.10192507
0.086210385 0.09863685 0.03688796 0.029215038 -0.059665725 -0.03225296 0.11407064 0.11034678
-0.01683268 -0.116102315 -0.01060462 0.09848072 0.116945624 -0.057026774 -0.111160055 -0.038736597
0.10308559 -0.04141909 0.074766815 0.039797947 0.00845176 -0.057105087 -0.08031659 -0.09940553
0.0004583001 -0.033767603 0.042451352 0.12232521 -0.010413349 -0.0018048584 -0.073446445 0.11483824
-0.011780404 0.06425241 0.12406126 -0.078604616 0.105210274 0.029376969 -0.049625374 -0.054268226
-0.10717467 -0.012492962 -0.08811246 -0.024772018 -0.09358446 0.043929413 0.04776679 -0.07517298
-0.088118404 0.0457803 0.04362285 0.04125932 -0.11375916 0.032463178 -0.06379525 -0.05088006
-0.11671052 0.0457737 -0.048609942 0.08711681 0.006579414 -0.12190911 0.12067476 -0.027314186
-0.012616359 -0.08505238 -0.12359112 -0.0037841052 -0.10561362 0.035787508 -0.08136724 -0.018063858
0.00787802 -0.123969726 0.043770686 0.11771503 0.037771612 -0.09315 -0.013703436 0.07320814
0.09979284 -0.022167183 -0.0021750778 -0.11457738 0.020150974 0.08064231 -0.03209191 0.048131138
-0.022665605 0.11369553 -0.071184784 0.020411938 -0.031954832 -0.05709143 -0.03644909 0.005833164
-0.10607619 -0.07742087 0.039886013 -0.05605042 -0.013622679 0.018468052 -0.018680938 0.011463672
0.09257211 -0.046156816 0.051369786 -0.05150366 -0.03331285 -0.05052352 0.089528725 0.09181349
0.042941958 0.029772177 0.017840698 -0.056839578 -0.10642697 0.06481436 0.043682545 -0.04219111
0.092261836 -0.08224966 -0.060160764 -0.05067844 0.11090797 0.05462995 0.076712124 0.14100246
00000000: 10e5 713e ca36 05be a416 bbbd 5670 a0bb
00000010: d973 553b d80e ff3e c9fc 883d c5c1 cbbd
00000020: c40a a83e 8c90 05be 5dc0 09bd d302 213e
00000030: d06e 76bc 1092 763e 3ea0 da3d 2c48 7cbc
00000040: 8be9 653d 5763 59be 133b 253d 8c35 283e
00000050: c0e1 83be dd8d ba3b 95c0 6d3e 1a98 85be
00000060: d203 933c 7924 033f 6730 12be 8bfc cfbd
00000070: dee3 243c 0e9a 64be 9f84 06be 61e2 693e
00000080: 57ed 2a3e d28d 263e 7b9f 053d 2249 31be
00000090: d26a 713e 6da9 ee3d abe0 64bd e345 01bc
000000a0: 5e0f 873b b4ee b6bd 2d57 8dbd f751 01bd
000000b0: 6a4b 6e3e a2ce b1bd bb26 cabd bca6 f7bc
000000c0: 8688 713c ce7b 8c3d ce28 eabd 4c28 3c3e
000000d0: e5b6 6f3d 9044 53bc 4d31 88be 6438 913d
000000e0: 5b3f 333e 3b60 66bd d18f 84be a974 8e3d
000000f0: ba00 813d f810 c7be 43f7 39be 5704 e43d
00000100: a10e 123e 2809 a93d 5790 5a3e d174 873d
00000110: 93a5 c93d 8996 8f3e 9af6 ffbc 5346 52bd
00000120: ff0e ba3d cfcb 583e e939 883d d894 803a
00000130: b33a 283e f6d5 04bd e01a ca3c dee5 2fbe
00000140: 6b11 2a3d 889f f73d 2371 94bd af86 203e
00000150: 6805 9d3d 8920 5c3e f9ed 6d3d 2b37 833d
00000160: 2962 db3e fc6c c43a dd11 fc3d 47da bbbd
00000170: fa15 cfbd fa42 b13d 368b 3cbe ea62 5d3e
00000180: c0ec 013c eb9b 2cbe 435e 803d 43f7 52bd
00000190: 6690 60be 451e 0dbe 6f60 0fbd 49c1 153c
000001a0: 9c4d 33be f0a7 cb3d da92 37be fd68 fc3c
000001b0: 9bea 213e 448c 3bbe ac0b a4bd e37b aa3d
000001c0: f3e3 7fbe 7313 01bf 4d96 d4bb 289d 703c
000001d0: b26f b2be e615 bebd d96e 91bd 144a 96bd
000001e0: 26bc 9c3d bfce 52be 6b98 8cbe 89d3 12be
000001f0: 3b47 53be 5088 c4be 0c4c babd 17be d0bd
00000200: 128f b03d 1e02 ca3d d417 173d 6054 ef3c
00000210: 0c64 74bd ae1b 04bd de9d e93d 7efd e13d
00000220: b0e4 89bc 0dc7 edbd 00bf 2dbc 42b0 c93d
00000230: 3081 ef3d e894 69bd e2a7 e3bd 44aa 1ebd
00000240: 8a1e d33d 10a7 29bd 581f 993d 2c03 233d
00000250: 4079 0a3c 06e7 69bd 067d a4bd 2095 cbbd
00000260: 0048 f039 e64f 0abd 78e1 2d3d a485 fa3d
00000270: c09c 2abc 0091 ecba 176b 96bd 5030 eb3d
00000280: 9802 41bc c496 833d d413 fe3d 75fb a0bd
00000290: 7c78 d73d f8a7 f03c fa43 4bbd 5c48 5ebd
000002a0: 657e dbbd 48af 4cbc 4e74 b4bd b0ee cabc
000002b0: 36a9 bfbd 54ef 333d 1ca7 433d 4bf4 99bd
000002c0: 6c77 b4bd 2084 3b3d e0ad 323d 88ff 283d
000002d0: 90fa e8bd 1cf8 043d 16a7 82bd 9c67 50bd
000002e0: ed05 efbd 347d 3b3d 381b 47bd 4c6a b23d
000002f0: 2098 d73b 7cab f9bd 5424 f73d 00c2 dfbc
00000300: d8b4 4ebc f12f aebd 571d fdbd c0fe 77bb
00000310: f44b d8bd ec95 123d dea3 a6bd a8fa 93bc
00000320: d012 013c d7e3 fdbd e448 333d 9414 f13d
00000330: 68b6 1a3d 6dc5 bebd 6084 60bc 26ee 953d
00000340: 3060 cc3d f497 b5bc c08b 0ebb 8ca7 eabd
00000350: a813 a53c cc27 a53d ce72 03bd 2825 453d
00000360: 38ad b9bc 34d9 e83d 54c9 91bd f036 a73c
00000370: 12e3 02bd b4d8 69bd a44b 15bd 2024 bf3b
00000380: 793e d9bd d58e 9ebd 845f 233d 2095 65bd
00000390: a831 5fbc 504a 973c c408 99bc 20d2 3b3c
000003a0: 7296 bd3d ee0e 3dbd 2069 523d 80f5 52bd
000003b0: 0e73 08bd c0f1 4ebd d65a b73d b608 bc3d
000003c0: e8e3 2f3d c8e4 f33c a826 923c 9ed0 68bd
000003d0: 62f6 d9bd 64bd 843d 78ec 323d 96d0 2cbd
000003e0: c6f3 bc3d 8272 a8bd 226b 76bd 3294 4fbd
000003f0: b823 e33d a8c3 5f3d 3f1b 9d3d f362 103e

decoder.0.bias f4 [256]
-0.0043058507 -0.02985636 -0.10091154 -0.08290019 -0.1372268 -0.14633167 -0.12343206 -0.103797846
0.13442361 -0.06413399 0.23086907 0.17826061 -0.115417734 -0.010324676 -0.0077905413 0.0046349876
-0.039453827 0.06395813 0.2679526 0.018972753 -4.6895617e-05 -0.101135746 0.38354406 0.14467457
-0.014932185 0.05249174 0.06816389 0.10798167 0.24576536 -0.21775152 0.11094285 0.098761395
0.040419325 -0.051252697 0.1327658 -0.0774274 0.09337617 -0.077615246 0.23577979 -0.09461446
0.31700546 -0.12256411 -0.002399902 0.12870148 0.2708462 -0.054025434 -0.01321128 0.11248936
-0.036424756 0.24780722 0.21127257 -0.20736685 -0.101706915 0.085772455 -0.023498952 -0.12736417
-0.003378878 0.28998557 0.14865053 0.21197891 -0.009581352 -0.08507433 0.2094547 -0.00052182376
0.14628051 0.20462495 -0.080771014 -0.093707934 -0.18778585 -0.045747988 0.04764281 0.17896822
-0.0666905 0.09056557 -0.1739863 -0.1223543 -0.07996988 -0.097570024 -0.22696859 -0.1008998
-0.012332082 0.27364123 0.18943359 0.052947167 -0.11545227 0.03848772 0.17313132 -0.0604326
0.22232926 0.212159 0.030320752 0.0061396793 -0.033940386 -0.1238916 -0.052839562 -0.0995231
0.31890363 0.083532505 0.09410183 -0.14866884 0.028103564 0.120775305 -0.076023325 0.35044184
0.26581296 0.033674624 -0.08636474 0.32307258 0.25719938 0.015463186 1.2318764 0.124135464
0.14726281 -0.039769344 0.09296896 0.11825952 0.16978689 0.18458027 -0.00039947033 -0.00480015
-0.07314004 0.16955094 -0.14386539 -0.004716317 -0.091796696 0.3671492 0.24524468 0.120982446
-0.112485915 0.22860724 0.29154515 0.21720035 0.1841294 0.11743828 0.0006253205 -0.10301828
0.063012056 0.17432387 -0.22076981 -0.07547001 -0.0750262 0.22206053 0.30170202 0.0964928
0.24380006 0.09983798 -0.21440758 -0.22028464 -0.000110915404 -0.04185956 0.21774599 0.059155323
0.055526387 0.1182687 0.20726272 0.17015342 -0.01749704 -0.0016807909 -0.015005469 -0.03456429
0.24730304 -0.0791985 -0.091807924 0.04248881 0.051142793 0.15710548 0.306944 -0.012139116
0.2533338 0.008456039 0.0042693694 0.29110783 -0.036601245 -0.05737715 -0.18808717 0.27964178
0.09152231 -0.00042647505 -0.1061012 -0.089079045 0.18562691 -0.11503994 -0.09413075 0.022219991
1.2232527 -0.12729856 -0.021115497 0.18383992 0.16838843 -0.0031912252 0.20205651 -0.054239262
-0.10278381 0.11973181 0.20429765 0.15420887 -0.16660917 -0.06855597 0.09616776 -0.099757984
0.012639346 -0.05449349 0.0027099499 -0.020882197 -0.11211837 0.0038605188 -0.08012466 0.25185204
0.08160567 -0.06493373 -0.09319138 0.19185854 -0.0006758603 0.07861919 0.02308872 0.107910775
0.11430763 -0.0909102 0.11343675 0.29132292 -0.11961791 -0.015622712 -0.06002562 -0.031013625
0.1109513 -0.21139058 0.17325468 -0.07700366 -0.1739949 -0.06976552 0.16747437 0.15838768
0.24630097 -0.08240838 0.15655185 0.1268845 -0.019502813 0.10479348 0.036074802 -0.049069297
0.15664932 0.17786825 0.21713941 -0.24950178 0.025164424 -0.00087807496 -0.0034546761 0.14389373
-0.003973253 0.14764068 -0.08853404 0.18679443 -0.10615463 -0.07111516 0.24722572 -0.042210724
00000000: 1818 8dbb 5395 f4bc b6aa cebd 93c7 a9bd
00000010: 2f85 0cbe f8d7 15be f3c9 fcbd f793 d4bd
00000020: 58a6 093e ae58 83bd f168 6c3e f389 363e
00000030: 2260 ecbd d428 29bc cc47 ffbb 18e1 973b
00000040: 569a 21bd 7bfc 823d 1531 893e bf6c 9b3c
00000050: c9b1 44b8 4220 cfbd e35f c43e 9225 143e
00000060: 20a6 74bc 9401 573d 8299 8b3d 7e25 dd3d
00000070: eaa9 7b3e 41fa 5ebe 0136 e33d 6a43 ca3d
00000080: bc8e 253d 59ee 51bd c2f3 073e 4292 9ebd
00000090: 013c bf3d bef4 9ebd 4270 713e 3ac5 c1bd
000000a0: 8a4e a23e e402 fbbd ad47 1dbb 52ca 033e
000000b0: 5aac 8a3e c649 5dbd 2074 58bc d260 e63d
000000c0: 2032 15bd 2dc1 7d3e d657 583e fa57 54be
000000d0: b74b d0bd 78a9 af3d e080 c0bc c16b 02be
000000e0: 2b70 5dbb fd78 943e d837 183e 0011 593e
000000f0: 1afb 1cbc 733b aebd 4b7b 563e 00cb 08ba
00000100: 8fca 153e 3489 513e 466b a5bd f2e9 bfbd
00000110: ef4a 40be 3e62 3bbd 1b25 433d 7243 373e
00000120: 0795 88bd 717a b93d 7729 32be e494 fabd
00000130: 40c7 a3bd cbd2 c7bd 746a 68be 8ea4 cebd
00000140: 800c 4abc b41a 8c3e e1fa 413e 21df 583d
00000150: 3d72 ecbd 4da5 1d3d 5649 313e 2d88 77bd
00000160: 48aa 633e 3540 593e 3a63 f83c 5d2f c93b
00000170: 1305 0bbd e1ba fdbd 4c6e 58bd c4d2 cbbd
00000180: 5647 a33e 1713 ab3d 76b8 c03d a53c 18be
00000190: 7239 e63c 0b59 f73d 1eb2 9bbd 1d6d b33e
000001a0: a318 883e 67ee 093d ffdf b0bd c569 a53e
000001b0: a3af 833e 4e59 7d3c 20ae 9d3f bc3a fe3d
000001c0: 10cc 163e 2ee5 22bd 8366 be3d 0c32 f23d
000001d0: 9ddc 2d3e 9c02 3d3e 0070 d1b9 944a 9dbb
000001e0: 72ca 95bd c39e 2d3e 7351 13be 568b 9abb
000001f0: e8ff bbbd fbfa bb3e 6c21 7b3e a5c5 f73d
00000200: 045f e6bd 0418 6a3e 6845 953e c569 5e3e
00000210: 6b8c 3c3e 7b83 f03d 8cec 233a 3ffb d2bd
00000220: 770c 813d f581 323e 7b11 62be 0590 9abd
00000230: 56a7 99bd d663 633e b078 9a3e 049e c53d
00000240: b9a6 793e db77 cc3d a98d 5bbe 4c92 61be
00000250: 419b e8b8 ee74 2bbd cef8 5e3e da4c 723d
00000260: a36f 633d dc36 f23d ae3c 543e b33c 2e3e
00000270: f455 8fbc fc4d dcba 80d9 75bc 4993 0dbd
00000280: 023d 7d3e d332 a2bd cb05 bcbd bf08 2e3d
00000290: 1b7b 513d 42e0 203e c427 9d3e 25e3 46bc
000002a0: f8b4 813e 338b 0a3c 11e6 8b3b 160c 953e
000002b0: 30eb 15bd 4d04 6bbd ec99 40be 352d 8f3e
000002c0: 0d70 bb3d 8398 dfb9 964b d9bd 136f b6bd
000002d0: fb14 3e3e 0f9a ebbd 9fc7 c0bd b306 b63c
000002e0: 8b93 9c3f 8e5a 02be 68fa acbc 8840 3c3e
000002f0: 046e 2c3e e023 51bb e7e7 4e3e fd29 5ebd
00000300: 5180 d2bd f435 f53d 6733 513e eee8 1d3e
00000310: 989b 2abe 1367 8cbd 9af3 c43d ea4d ccbd
00000320: 4215 4f3c 9134 5fbd 6a99 313b 2411 abbc
00000330: 519e e5bd c200 7d3b 6618 a4bd c0f2 803e
00000340: e020 a73d fafb 84bd 1fdb bebd 9176 443e
00000350: 382c 31ba 1903 a13d 8e24 bd3c 5300 dd3d
00000360: 1e1a ea3d 202f babd 8751 e83d 4728 953e
00000370: 3cfa f4bd 67f6 7fbc 6ddd 75bd 4910 febc
00000380: 6f3a e33d c676 58be ad69 313e 18b4 9dbd
00000390: b82b 32be 3ae1 8ebd 677e 2b3e 6130 223e
000003a0: 5236 7c3e bac5 a8bd 214f 203e 03ee 013e
000003b0: 5dc4 9fbc f79d d63d 2cc3 133d e3fc 48bd
000003c0: ae68 203e 1823 363e cb59 5e3e 657d 7fbe
000003d0: 9f25 ce3c 9d2e 66ba d967 62bb e158 133e
000003e0: 1032 82bb 1e2f 173e 5651 b5bd 0a47 3f3e
000003f0: 9967 d9bd d3a4 91bd bd28 7d3e 27e5 2cbd

decoder.2.weight f4 [128, 256]
-0.055664793 -0.0031249821 -0.009253666 -0.01305344 0.00063054776 0.02183861 -0.05479826 0.013111025
-0.050535526 -0.002087988 -0.037852854 -0.0026928154 -0.03832756 0.04307452 0.0059507196 0.05070667
-0.028766496 -0.02524911 0.017275719 0.046551924 -0.04277856 -0.055956103 -0.060537446 0.0049425797
-0.02642936 -0.06213608 -0.026407363 -0.01807213 -0.03555481 -0.023363248 -0.05643647 -0.011653615
-0.027990518 0.039152484 -0.063607775 -0.017483957 0.006238438 0.047058158 -0.043314964 -0.05476576
-0.047701187 0.023913113 0.0024534226 -0.0667442 -0.051380955 -0.059133276 -0.011685692 0.040712226
0.0021583592 0.020791708 -0.008831087 0.018602846 0.053846717 -0.022246758 0.021127893 0.053147554
0.027340135 0.053031895 0.016445018 -0.056821555 -0.027998876 -0.0063179657 0.01734142 0.061028145
0.00876966 -0.041205116 0.023689605 0.04834748 -0.04827912 -0.058584847 -0.053965565 0.040132076
0.017477505 -0.021603988 -0.030267932 0.0257212 -0.018208891 0.03335732 0.017239502 0.056046918
0.023936652 -0.009284423 -0.012478127 0.032449417 -0.049316503 0.0489038 -0.06368851 0.05004346
-0.02613859 0.013726754 -0.026379697 0.015155925 0.037064627 -0.0046119243 0.013657823 0.00353311
0.02679806 0.010521956 0.002957912 -0.05576166 0.0006928097 0.0214684 -0.05021376 0.030656109
-0.00446292 -0.054769058 -0.045044035 0.013706999 0.02097203 0.015736392 0.043089192 -0.02715344
-0.015462548 -0.009735636 0.03692193 -0.014834708 -0.027150413 0.034245502 -0.0047996566 0.030225145
0.057586685 -0.047425985 0.033621334 0.025078319 0.027939714 -0.06671388 -0.06403844 -0.058785282
-0.060055126 -0.024690086 -0.0054924153 -0.018209754 0.038609013 -0.049257018 0.02127894 0.03085415
-0.019602211 -0.055905204 0.030503653 -0.02285744 0.06235274 0.029221572 -0.01321962 -0.048314665
0.032307193 -0.014022492 0.011531414 -0.05617941 0.030196145 0.029791128 -0.032128345 -0.033911023
-0.022451904 0.05735042 -0.0018160506 0.026996398 -0.022431016 0.016188553 -0.0026675686 -0.055621646
0.052886233 0.05153765 0.011722758 -0.0041943453 0.0002265043 -0.033029255 0.01435275 -0.017419042
0.020728067 0.00072139193 -0.060001243 0.049072623 -0.04647553 -0.033207975 -0.042215466 0.011402517
0.056815546 -0.042747863 0.020286195 0.057340395 -0.030932369 -0.059467472 -0.043567583 0.029730367
0.02378693 0.03325424 0.007061659 -0.046486363 -0.019702578 -0.047406666 0.03759242 -0.05472874
-0.021761209 0.029196251 -0.009972346 -0.022126669 0.010596617 0.056297295 -0.019186692 -0.009243446
-0.010207396 -0.0017932003 -0.028794589 0.030177996 0.014680736 0.046252776 0.0076770037 -0.028362596
0.03360036 -0.0051500797 -0.024207123 -0.035667203 -0.058136553 -0.0007518737 0.033491887 0.045087256
-0.01760783 -0.060638715 0.009791662 -0.00592209 -0.05198486 -0.04273771 -0.014447482 0.01883325
0.05422361 -0.044765297 -0.0052562454 0.052312754 -0.04191192 0.008968644 0.009187012 -0.013784554
0.0033054394 -0.046996325 -0.03080091 -0.018281844 0.020234134 0.0013455935 0.035360105 -0.029967668
0.006277788 -0.008728051 0.017445797 -0.05897274 0.040944707 0.05472775 0.055610985 -0.0668218
0.042502552 0.011819296 -0.05118738 0.043494433 0.021688357 -0.027432583 -0.00485006 0.038323864
00000000: c400 64bd 80cc 4cbb b09c 17bc 18de 55bc
00000010: 584b 253a e2e6 b23c 2474 60bd a0cf 563c
00000020: 57fe 4ebd a0d6 08bb 980b 1bbd f279 30bb
00000030: 5cfd 1cbd e86e 303d 41fe c23b ccb1 4f3d
00000040: b7a7 ebbc 39d7 cebc cf85 8d3c 3bad 3e3d
00000050: 9238 2fbd 3a32 65bd 1df6 77bd 5df5 a13b
00000060: 6382 d8bc 6782 7ebd 4154 d8bc 010c 94bc
00000070: eca1 11bd 4864 bfbc ee29 67bd ceee 3ebc
00000080: 5f4c e5bc 5b5e 203d cb44 82bd 843a 8fbc
00000090: d06b cc3b 0ec0 403d 086b 31bd 1052 60bd
000000a0: 5262 43bd 6fe5 c33c 9ac9 203b 2fb1 88bd
000000b0: d674 52bd bc35 72bd 5875 3fbc ddc1 263d
000000c0: 4273 0d3b 5f53 aa3c 43b0 10bc ff64 983c
000000d0: 608e 5c3d d53e b6bc 6714 ad3c 40b1 593d
000000e0: 6bf8 df3c f937 593d b4b7 863c b8bd 68bd
000000f0: e65d e5bc f006 cfbb 980f 8e3c a6f8 793d
00000100: 9fae 0f3c b2c6 28bd b410 c23c 0208 463d
00000110: 54c0 45bd aaf6 6fbd ff0a 5dbd 8861 243d
00000120: fc2c 8f3c d9fa b0bc 74f4 f7bc 44b5 d23c
00000130: d02a 95bc afa1 083d db39 8d3c 7491 653d
00000140: cc16 c43c b11d 18bc 0f71 4cbc aee9 043d
00000150: 1a00 4abd 5a4f 483d 1f6f 82bd 5ffa 4c3d
00000160: 9920 d6bc 2ee6 603c 3c1a d8bc 8f50 783c
00000170: 14d1 173d a01f 97bb 10c5 5f3c c08b 673b
00000180: 9b87 db3c 4864 2c3c 87d9 413b 5766 64bd
00000190: ac9d 353a 7fde af3c f2ac 4dbd 8522 fb3c
000001a0: b03d 92bb 8555 60bd 1880 38bd 5293 603c
000001b0: 89cd ab3c 9be9 803c 4b7e 303d e470 debc
000001c0: a056 7dbc 3882 1fbc 733b 173d 460d 73bc
000001d0: 8b6a debc 0345 0c3d 7046 9dbb b99a f73c
000001e0: 04e0 6b3d c041 42bd 86b6 093d 0c71 cd3c
000001f0: d4e1 e43c 49a1 88bd 9626 83bd d6c8 70bd
00000200: 5dfc 75bd dd42 cabc b8f9 b3bb 9f2c 95bc
00000210: 7c24 1e3d bac1 49bd 2c51 ae3c d8c1 fc3c
00000220: d194 a0bc dbfc 64bd cce2 f93c 873f bbbc
00000230: 9665 7f3d 1462 ef3c 1b97 58bc 99e5 45bd
00000240: 8c54 043d 98be 65bc 42ee 3c3c 621c 66bd
00000250: e85d f73c 860c f43c 0399 03bd 49e6 0abd
00000260: 0eed b7bc 46e8 6a3d 8c08 eeba 8d27 dd3c
00000270: 40c1 b7bc db9d 843c 60d2 2ebb 86d3 63bd
00000280: 3c9f 583d 2519 533d d010 403c b870 89bb
00000290: c981 6d39 af49 07bd cc27 6b3c 61b2 8ebc
000002a0: e8cd a93c cb1b 3d3a ddc3 75bd 6000 493d
000002b0: 205d 3ebd 1605 08bd 20ea 2cbd 9fd1 3a3c
000002c0: 6bb7 683d 6218 2fbd 3c2f a63c c3dd 6a3d
000002d0: e165 fdbc 2a94 73bd ec73 32bd 198d f33c
000002e0: cfdc c23c 9935 083d 7d65 e73b 7c68 3ebd
000002f0: 4d67 a1bc 7e2d 42bd 82fa 193d 3e2b 60bd
00000300: 9044 b2bc fa2c ef3c 0d63 23bc fd42 b5bc
00000310: 6f9d 2d3c fe97 663d 692d 9dbc d371 17bc
00000320: ec3c 27bc d109 ebba a1e2 ebbc d837 f73c
00000330: 7887 703c 8d73 3d3d 608f fb3b ad58 e8bc
00000340: 88a0 093d 00c2 a8bb 044e c6bc c617 12bd
00000350: 9820 6ebd 6419 45ba ca2e 093d 6aad 383d
00000360: 4c3e 90bc 4d60 78bd 356d 203c 170e c2bb
00000370: 14ee 54bd bd0d 2fbd 22b5 6cbc 3048 9a3c
00000380: 9319 5e3d d15b 37bd 953c acbb e645 563d
00000390: d5ab 2bbd 38f1 123c 1f85 163c 9cd8 61bc
000003a0: 12a0 583b 387f 40bd 3152 fcbc cec3 95bc
000003b0: 0ec2 a53c a05e b03a c2d5 103d c17e f5bc
000003c0: e7b5 cd3b 1900 0fbc 7dea 8e3c 668d 71bd
000003d0: a3b5 273d 352a 603d 58c8 633d ded9 88bd
000003e0: 2817 2e3d b8a5 413c dca9 51bd 3827 323d
000003f0: c8ab b13c 4cba e0bc 41ed 9ebb 7cf9 1c3d

decoder.2.bias f4 [128]
-0.034263674 0.041018628 0.12969345 0.022417387 0.019906612 -0.06417689 0.0049879584 0.041554585
0.021235967 0.13064201 0.05144701 -0.02139498 -0.030279772 -0.08607982 0.16297871 0.08329416
-0.04530665 0.098867595 0.0015367006 0.11529689 0.053590667 0.025745673 0.050957266 -0.03755108
0.21226662 0.025767487 0.025938462 -0.073865086 0.017924907 0.041205846 0.121026106 -0.046139967
0.22812305 -0.008879576 -0.019360669 0.0003643632 0.0052227005 -0.009678691 -0.12214557 0.06772514
0.1216256 0.049999297 -0.011440238 -0.008469172 -0.031624764 0.06939394 -0.023938404 0.045615897
0.10429726 0.033651542 0.049974874 -0.04673429 -0.029797068 0.035595972 -0.06395889 -0.072979726
-0.050537582 0.055255167 0.12145614 0.029154107 0.120869525 0.059702326 -0.032745235 -0.06259587
0.13197687 0.03341727 -0.0018928235 0.004634878 0.07265976 0.16205615 -0.040158145 -0.058610793
0.033341747 0.16651997 -0.055984005 -0.052467056 -0.031640515 -0.072366945 0.111496724 -0.06984765
0.036333766 -0.07067515 0.013135323 0.09389572 0.13908955 0.022801727 0.036553327 0.025110869
-0.009937345 0.07950999 -0.06004073 0.1592434 0.16948807 0.085859425 0.101396725 0.10824053
0.02660239 0.10386696 -0.07138183 0.11613266 0.02401978 0.12288117 0.10169811 0.027304083
0.21673773 0.10425008 0.070901394 0.015642673 -0.033991307 0.15863651 0.14129044 0.018928288
0.010532468 0.18428703 -0.023073006 0.018654414 0.08829655 -0.06937932 0.054622296 0.044353116
0.096427634 0.004388275 0.007691939 -0.07953215 -0.06847786 0.06212734 0.027177518 -0.06956279
00000000: 1158 0cbd 2603 283d 5cce 043e aba4 b73c
00000010: 3113 a33c 2c6f 83bd 0772 a33b 2435 2a3d
00000020: 0df7 ad3c 05c7 053e 1aba 523d 8644 afbc
00000030: 490d f8bc 9e4a b0bd e4e3 263e 2196 aa3d
00000040: 7793 39bd 187b ca3d 1e6b c93a c720 ec3d
00000050: e381 5b3d 97e8 d23c 91b8 503d 29cf 19bd
00000060: 6c5c 593e 5616 d33c e67c d43c 9446 97bd
00000070: 41d7 923c 76c7 283d 89dc f73d 43fd 3cbd
00000080: 1799 693e a47b 11bc 449a 9ebc 0008 bf39
00000090: 3023 ab3b 5f93 1ebc 7527 fabd 7ab3 8a3d
000000a0: d816 f93d 10cc 4c3d d66f 3bbc 48c2 0abc
000000b0: f888 01bd 691e 8e3d 791a c4bc bcd7 3a3d
000000c0: cd99 d53d 33d6 093d 74b2 4c3d 746c 3fbd
000000d0: fb18 f4bc 15cd 113d e1fc 82bd 6576 95bd
000000e0: 7f00 4fbd 3e53 623d ffbd f83d 98d4 ee3c
000000f0: 718a f73d 6d8a 743d de1f 06bd 4332 80bd
00000100: f224 073e 8ce0 083d 9e18 f8ba 2de0 973b
00000110: a4ce 943d 0cf2 253e de7c 24bd df11 70bd
00000120: 5b91 083d 3684 2a3e 7c4f 65bd b2e7 56bd
00000130: 7c99 01bd 1f35 94bd 6558 e43d 490c 8fbd
00000140: b7d2 143d 22be 90bd 8a35 573c 664c c03d
00000150: 7e6d 0e3e b0ca ba3c f1b8 153d 4fb5 cd3c
00000160: 3fd0 22bc 22d6 a23d 45ed 75bd b410 233e
00000170: 488e 2d3e 11d7 af3d 16a9 cf3d 36ad dd3d
00000180: 41ed d93c 33b8 d43d a330 92bd f6d6 ed3d
00000190: 21c5 c43c 1fa9 fb3d 1947 d03d d0ac df3c
000001a0: 7ff0 5d3e 1181 d53d c034 913d 1025 803c
000001b0: 783a 0bbd 9c71 223e 71ae 103e 7f0f 9b3c
000001c0: 5f90 2c3c bdb5 3c3e 9a03 bdbc 24d1 983c
000001d0: d2d4 b43d bf16 8ebd a1bb 5f3d 9dab 353d
000001e0: da7b c53d 85cb 8f3b a90c fc3b c0e1 a2bd
000001f0: 1f3e 8cbd 3d79 7e3d 63a3 de3c f076 8ebd

decoder.4.weight f4 [64, 128]
0.0056082453 -0.025182962 -0.027052563 -0.012255937 0.05852829 0.04272344 -0.08262232 -0.043996375
0.08366149 -0.053700298 0.05382414 -0.0013744474 0.041860163 -0.08570863 -0.029529339 0.08014724
-0.020145297 0.06912867 -0.038167868 0.060058866 -0.035970505 -0.039552238 -0.075266905 0.050460286
-0.038297646 0.071606666 -0.027579512 -0.0743185 -0.038896345 -0.027599769 0.019268297 -0.05664017
-0.01419762 0.045041636 0.038161818 0.05502566 -0.05678822 0.0204793 -0.09001124 -0.063636795
0.0731456 -0.008337083 -0.0831324 0.03688713 0.016190216 -0.079503424 0.055242367 0.060249884
0.03264141 -0.020122645 -0.0764409 0.042358104 0.035563577 0.072767116 -0.047770914 -0.025325332
0.053104483 0.023079984 0.009495553 -0.07816608 -0.08368468 0.058247082 -0.060344793 0.025716595
0.034906026 0.07997398 0.048942514 -0.01190902 -0.063938245 0.03516738 0.02071502 -0.012637898
0.00999501 0.0027604091 -0.068930216 -0.07249691 -0.079394035 -0.0017666593 0.0071951947 0.04400495
-0.039843827 0.079266675 0.030020757 -0.069897145 -0.03279575 -0.0019207597 0.05032866 -0.051675282
0.0104574375 -0.091638304 -0.0014975443 0.024203883 -0.06670074 -0.0600478 -0.030444117 -0.05193114
-0.0052704928 -0.01107536 -0.067888856 -0.07953772 0.06540412 0.010944366 0.042359117 0.036230817
0.059200283 -0.055127412 -0.035713747 -0.053688645 0.072364435 0.07579554 -0.01613756 0.03206888
-0.07713129 -0.06604906 0.007909643 0.046471663 -0.040247317 0.019459907 0.03042546 -0.007273175
0.06967377 -0.015126831 -0.023073623 0.03240496 0.042211164 -0.013560229 -0.047116183 -0.053657696
-0.07467311 0.07602913 0.061866295 -0.056920294 -0.0040759267 -0.049488395 -0.037332013 -0.077519424
0.06563815 -0.039641242 0.012687061 -0.0036788096 -0.085048206 -0.09053417 -0.07636124 -0.00043723657
0.0051668957 -0.05158583 0.006981723 -0.028576966 -0.048671104 -0.046009358 -0.068688564 -0.0046734065
-0.08425641 0.013713625 -0.014586605 0.06983418 -0.063986726 0.037105497 -0.06175092 0.043312557
0.06385824 0.057679854 0.08577089 0.026865222 -0.08506394 -0.037555672 -0.08252945 -0.08688632
0.01874427 -0.06355384 0.012739508 -0.011748552 0.044771574 -0.074548475 -0.00782942 0.03208382
-0.08089359 0.019146096 0.033439472 0.01528699 0.05608245 -0.031145161 -0.022565655 -0.0400658
-0.007675551 0.072988994 0.037582293 -0.051218975 -0.07570001 0.013822704 0.0074185804 0.05148592
-0.053944785 -0.04672287 -0.08424565 0.01662495 0.02800768 -0.06103001 0.055557095 0.011460713
0.0037774208 0.03007246 -0.082197666 0.07132412 0.010216475 0.026630126 -0.05742875 0.053599752
-0.08157368 0.01563114 0.08558948 0.04252884 0.035492096 0.06857332 -0.026416117 0.019604055
0.08566603 -0.012063275 -0.06768419 -0.09125889 0.027259024 0.031216403 -0.0806704 -0.008227138
0.019440811 -0.074286185 -0.061736368 0.019414103 -0.037572816 0.043259367 -0.06390749 -0.053420775
-0.007910056 0.04895841 0.019512149 0.032125793 0.0038242312 -0.08322517 0.06391591 0.029639611
-0.0806407 -0.009542653 -0.042687733 0.07781218 -0.0023953568 0.025580915 0.057951547 -0.002366332
-0.067197576 0.055331133 0.06184206 0.07776318 0.0062592146 -0.067329444 -0.03896555 0.039045855
00000000: 5fc5 b73b 804c cebc 569d ddbc 20cd 48bc
00000010: 5cbb 6f3d c6fe 2e3d e435 a9bd 8b35 34bd
00000020: b756 ab3d d8f4 5bbd b476 5c3d cd26 b4ba
00000030: 9075 2b3d 0288 afbd 83e7 f1bc 3c24 a43d
00000040: c007 a5bc 5593 8d3d e955 1cbd 4900 763d
00000050: cf55 13bd 8701 22bd 8925 9abd 72af 4e3d
00000060: fedd 1cbd 84a6 923d 6eee e1bc 4c34 98bd
00000070: c651 1fbd e918 e2bc 8cd8 9d3c 86ff 67bd
00000080: 229d 68bc 947d 383d 914f 1c3d 9662 613d
00000090: c49a 68bd 34c4 a73c d057 b8bd 0254 82bd
000000a0: 5ccd 953d 4398 08bc 5241 aabd f616 173d
000000b0: 58a1 843c b1d2 a2bd d245 623d 95c8 763d
000000c0: 00b3 053d 3fd8 a4bc 0c8d 9cbd b17f 2d3d
000000d0: 1dab 113d ed06 953d 6fab 43bd 1277 cfbc
000000e0: 1684 593d 3c12 bd3c 3c93 1b3c 8a15 a0bd
000000f0: e062 abbd 7e94 6e3d 1a2c 77bd 9cab d23c
00000100: 9ff9 0e3d 66c9 a33d f277 483d 0d1e 43bc
00000110: 0ef2 82bd ac0b 103d 8cb2 a93c 300f 4fbc
00000120: 1cc2 233c fbe7 343b 492b 8dbd 4379 94bd
00000130: 5799 a2bd 408f e7ba abc5 eb3b 893e 343d
00000140: 4833 23bd 9156 a23d 17ee f53c 3c26 8fbd
00000150: d654 06bd 00c2 fbba 6d25 4e3d 76a9 53bd
00000160: ac55 2b3c ddac bbbd 4049 c4ba 3947 c63c
00000170: 669a 88bd aff4 75bd f165 f9bc bfb5 54bd
00000180: 19b4 acbb 6d75 35bc 5009 8bbd ace4 a2bd
00000190: 98f2 853d 0050 333c c180 2d3d c466 143d
000001a0: ff7b 723d 48cd 61bd 9448 12bd a0e8 5bbd
000001b0: ce33 943d b13a 9b3d eb32 84bc a85a 033d
000001c0: 03f7 9dbd bb44 87bd 7397 013c 1259 3e3d
000001d0: 5fda 24bd 626a 9f3c d03e f93c d053 eebb
000001e0: 1fb1 8e3d 87d6 77bc e504 bdbc 10bb 043d
000001f0: 9de5 2c3d b92b 5ebc e6fc 40bd 2cc8 5bbd
00000200: 37ee 98bd 29b5 9b3d 8367 7d3d 4125 69bd
00000210: 5a8f 85bb 58b4 4abd 74e9 18bd 81c2 9ebd
00000220: 4b6d 863d db5e 22bd 64dd 4f3c 2f18 71bb
00000230: c12d aebd fb69 b9bd 4863 9cbd e63c e5b9
00000240: 104f a93b aa4b 53bd f0c6 e43b 3e1a eabc
00000250: 5a5b 47bd 4f74 3cbd 97ac 8cbd 6023 99bb
00000260: a08e acbd 1daf 603c a8fc 6ebc 3905 8f3d
00000270: 790b 83bd effb 173d 88ee 7cbd 8268 313d
00000280: 1cc8 823d b641 6c3d a6a8 af3d 7414 dc3c
00000290: 0136 aebd fad3 19bd 3305 a9bd 74f1 b1bd
000002a0: 958d 993c 8428 82bd 5fb9 503c 007d 40bc
000002b0: 6662 373d dfac 98bd f846 00bc 536a 033d
000002c0: 8aab a5bd 46d8 9c3c d4f7 083d 4976 7a3c
000002d0: b6b6 653d 2324 ffbc 9cdb b8bc 091c 24bd
000002e0: 3083 fbbb 417b 953d e4ef 193d fdca 51bd
000002f0: 9b08 9bbd 9f78 623c 9017 f33b e6e2 523d
00000300: 35f5 5cbd 7b60 3fbd fc88 acbd 0c31 883c
00000310: 5d70 e53c 9bfa 79bd d68f 633d b7c5 3b3c
00000320: 9b8e 773b 855a f63c 4057 a8bd 6112 923d
00000330: 0163 273c 6c27 da3c 693a 6bbd 6a8b 5b3d
00000340: 1a10 a7bd e00c 803c 8a49 af3d b932 2e3d
00000350: 2960 113d 2b70 8c3d 9d66 d8bc af98 a03c
00000360: ac71 af3d 0ba5 45bc 029e 8abd f1e5 babd
00000370: 514e df3c 8bb9 ff3c 8636 a5bd 1ecb 06bc
00000380: 5642 9f3c 5b23 98bd 46df 7cbd 530a 9f3c
00000390: f4e5 19bd bc30 313d eee1 82bd becf 5abd
000003a0: 2e99 01bc 9d88 483d f1d7 9f3c 5696 033d
000003b0: f49f 7a3b f571 aabd 58e6 823d c5ce f23c
000003c0: f426 a5bd ca58 1cbc 55d9 2ebd fe5b 9f3d
000003d0: 6bfb 1cbb 118f d13c 9a5e 6d3d 7714 1bbb
000003e0: e29e 89bd e6a2 623d 1a4e 7d3d 4d42 9f3d
000003f0: 191a cd3b 05e4 89bd 579a 1fbd 8cee 1f3d

decoder.4.bias f4 [64]
0.024013234 0.039022025 0.09527748 0.03480588 -0.021181222 0.07149034 -0.050308235 0.0016143204
0.03496189 -0.07885451 -0.07044328 0.021917015 -0.018204218 0.14737014 -0.04746329 0.09958701
-0.047533426 0.13510346 0.028186232 -0.01606452 0.06545984 0.078487016 -0.10031051 -0.024254948
0.010495108 -0.0668477 0.019086482 0.019790415 -0.05759171 0.010978691 0.069410965 0.05304567
-0.03956291 -0.040216405 0.13506782 0.058988463 0.04284602 0.018473053 -0.015445569 0.043383826
0.053966805 0.10660664 -0.107762426 -0.09602916 -0.039172918 0.05131817 0.12285801 -0.07988236
0.16773598 0.050677497 -0.09209767 -0.13196167 0.026965832 0.04484299 0.07500802 0.09325914
-0.087063886 0.10273271 -0.0045425696 0.033872787 0.03946421 0.051162764 0.047650494 -0.044111054
00000000: 67b7 c43c 8fd5 1f3d d720 c33d 9c90 0e3d
00000010: 3e84 adbc 8769 923d 0210 4ebd 9b97 d33a
00000020: 3334 0f3d 797e a1bd 9144 90bd 508b b33c
00000030: 0321 95bc 33e8 163e de68 42bd 46f4 cb3d
00000040: 69b2 42bd 9058 0a3e d0e6 e63c be99 83bc
00000050: cf0f 863d cdbd a03d 996f cdbd 50b2 c6bc
00000060: acf3 2b3c 72e7 88bd 415b 9c3c 821f a23c
00000070: 49e5 6bbd f8df 333c 5627 8e3d 6b46 593d
00000080: b80c 22bd f5b9 24bd 384f 0a3e e39d 713d
00000090: 4f7f 2f3d cd54 973c 690f 7dbc 3db3 313d
000000a0: 4c0c 5d3d 9554 da3d 8cb2 dcbd f0aa c4bd
000000b0: c873 20bd 0033 523d fb9c fb3d 5d99 a3bd
000000c0: fbc2 2b3e 3593 4f3d b49d bcbd f620 07be
000000d0: 73e7 dc3c 48ad 373d ce9d 993d a6fe be3d
000000e0: 8d4e b2bd 8765 d23d d6d9 94bb 31be 0a3d
000000f0: 39a5 213d 0c90 513d 2a2d 433d cbad 34bd

decoder.6.weight f4 [26, 64]
0.04642498 -0.12280745 0.11386173 -0.08488022 0.22191018 0.0851602 -0.04764926 -0.025865328
-0.033301573 0.10996831 0.41787565 0.074047 -0.24864195 -0.02847749 0.04193546 -0.41377494
-0.071780816 -0.3966574 0.10086395 0.06733119 -0.10163432 0.039488114 -0.1159228 -0.20424816
0.093997985 0.009258015 -0.06196014 0.1286577 0.11895997 -0.011733993 0.07746214 -0.11023658
-0.18326284 0.16101608 0.1857595 -0.04898582 -1.0299332 0.49549443 -0.0863291 -0.40868306
-0.1273805 -0.10218542 -0.07995248 -0.23563868 -0.72513336 -0.40411475 -0.02524179 -0.06719706
-0.49758604 -0.5282722 0.014004603 0.009852996 0.023702132 0.016102703 0.100432545 -0.17319143
0.049706385 -0.29382455 0.05524124 0.11482952 0.013771506 -0.50050616 -0.08845995 -0.07469224
0.06297014 0.03935144 -0.12940899 0.19367358 -0.23912919 0.05626215 -0.17955285 -0.171966
0.0956756 -0.11878209 -1.3434006 -0.6021963 -0.19172993 -0.107584536 0.09672071 -0.08201984
-0.038937453 0.13259913 -0.06794932 -0.08767189 -0.079547904 0.10081672 -0.04039746 0.16355789
0.051084515 -0.3218667 -0.08959101 0.110744774 0.105327025 0.014521223 0.09274476 0.1041341
-0.0974841 -0.19521132 0.01640295 0.01863096 0.0012685092 0.17566746 -0.044183463 -0.21982552
0.035349425 0.09579785 0.0848432 0.24169225 0.01525606 0.27322018 -0.014588229 -0.07295802
-1.3103377 -0.13668326 -0.050652664 -0.36907366 0.10966328 -0.04558298 0.06453236 -0.11927851
-0.29659134 -1.3289852 -0.033375043 -0.08853023 -0.07249869 0.04038774 0.08877284 -0.036387555
0.05436996 -0.025366088 0.06906503 -0.29250228 0.054672558 -0.07958192 -0.106252186 -0.077548794
-0.105201274 0.037822653 0.18304838 -0.04226683 -0.39496273 -0.11784806 -0.100507095 -0.1387932
0.26734772 -0.08720688 -0.068080045 -0.054184005 0.18643577 -0.009708977 -0.022650953 0.048437223
-0.101161756 -1.4191599 -0.017937835 0.017384727 0.045152046 -0.06862654 -0.45677623 -1.563819
0.2917921 -0.51013696 -0.021681555 -0.28242967 0.10967781 -0.2358025 -0.12473771 0.44599515
-1.1084014 -0.0101413615 0.01916009 0.096807756 0.014577453 0.20629011 0.20340069 0.091206945
-0.32538748 -0.43382043 -0.061102 -0.89760333 0.034222882 0.3241045 -0.095763676 -0.21118842
0.061200343 0.30356994 0.10463791 -0.1161643 0.07066512 0.1378736 -0.11778314 -0.06784476
-0.120027505 0.03584066 0.075899445 0.06299354 -0.16476047 -0.08297449 0.061173704 -0.13802399
-0.060964458 -0.071116075 -0.45104694 0.048339244 -0.30738044 0.0387568 -0.087044105 -0.19590439
0.08532582 0.06646917 0.104452215 -0.09231628 -0.25328583 -0.015920913 -0.078379355 0.055584464
0.072025895 -0.16374575 0.06983214 -0.049813993 -0.093431324 0.018380623 -0.28576615 -0.34189615
0.13602923 0.095920354 0.050249502 0.0041767797 -0.2533469 0.10498933 0.07798617 -0.092471994
-1.0869473 0.026278028 -0.12333017 0.24359715 -0.12215015 0.34558803 0.14396803 -0.11074541
0.041943047 -1.2877648 0.046642497 -0.29814905 -0.0350488 -0.06818871 0.0042743436 -0.06936648
0.091983125 -0.31854647 0.07126669 0.081611566 -0.022694133 -0.012205859 -0.118895814 -0.113135
00000000: 1f28 3e3d 7982 fbbd 5730 e93d aed5 adbd
00000010: 6c3c 633e 7968 ae3d df2b 43bd 86e3 d3bc
00000020: 3b67 08bd 1137 e13d ccf3 d53e f4a5 973d
00000030: ff9b 7ebe a049 e9bc 84c4 2b3d 4fda d3be
00000040: d201 93bd ae16 cbbe c291 ce3d efe4 893d
00000050: a825 d0bd 4abe 213d ef68 edbd 6e26 51be
00000060: 0482 c03d eeae 173c eac9 7dbd d8be 033e
00000070: 49a1 f33d ef3f 40bc 78a4 9e3d b7c3 e1bd
00000080: 41a9 3bbe 66e1 243e bd37 3e3e 5ba5 48bd
00000090: dad4 83bf 72b1 fd3e 50cd b0bd e83e d1be
000000a0: 0970 02be 9746 d1bd 20be a3bd 444b 71be
000000b0: 57a2 39bf 21e8 cebe dfc7 cebc 9d9e 89bd
000000c0: 99c3 febe d93c 07bf 9073 653c 766e 213c
000000d0: f92a c23c d1e9 833c 94af cd3d 1859 31be
000000e0: ec98 4b3d 2c70 96be a344 623d bd2b eb3d
000000f0: e2a1 613c 2c21 00bf 7e2a b5bd 3ff8 98bd
00000100: 7df6 803d fa2e 213d ca83 04be 5e52 463e
00000110: 48de 74be 2473 663d b4dc 37be db17 30be
00000120: 92f1 c33d 0644 f3bd 8df4 abbf 8929 1abf
00000130: da54 44be 4855 dcbd 8215 c63d 05fa a7bd
00000140: e17c 1fbd 11c8 073e 0329 8bbd 528d b3bd
00000150: 03ea a2bd ff78 ce3d cf77 25bd b87b 273e
00000160: ff3d 513d b6cb a4be 7e7b b7bd 28ce e23d
00000170: b2b5 d73d 6cea 6d3c f7f0 bd3d 4244 d53d
00000180: bea5 c7bd 7ae5 47be 7b5f 863c f49f 983c
00000190: 1b44 a63a 2ce2 333e b8f9 34bd f119 61be
000001a0: 8fca 103d aa31 c43d 46c2 ad3d 2c7e 773e
000001b0: 8ef4 793c 84e3 8b3e 7803 6fbc 046b 95bd
000001c0: 25b9 a7bf b2f6 0bbe 2b79 4fbd 39f7 bcbe
000001d0: 2497 e03d 38b5 3abd 8b29 843d 4b48 f4bd
000001e0: d2da 97be 301c aabf 45b4 08bd 564f b5bd
000001f0: 317a 94bd 9d6d 253d 89ce b53d 1e0b 15bd
00000200: 09b3 5e3d 8bcc cfbc f771 8d3d dcc2 95be
00000210: 55f0 5f3d d8fb a2bd bf9a d9bd e7d1 9ebd
00000220: c473 d7bd edeb 1a3d 0971 3b3e fc1f 2dbd
00000230: 8e38 cabe 535a f1bd aad6 cdbd ce1f 0ebe
00000240: cde1 883e 8599 b2bd 8d6d 8bbd 0cf0 5dbd
00000250: 05e9 3e3e 6712 1fbc 7e8e b9bc 1c66 463d
00000260: e52d cfbd 08a7 b5bf 5ef2 92bc 6a6a 8e3c
00000270: 5af1 383d 128c 8cbd 93de e9be 392b c8bf
00000280: c665 953e 5698 02bf 849d b1bc 9f9a 90be
00000290: c29e e03d 3676 71be 7c76 ffbd 7a59 e43e
000002a0: 19e0 8dbf f427 26bc 9ff5 9c3c 2543 c63d
000002b0: 45d6 6e3c b73d 533e 4548 503e b5ca ba3d
000002c0: 3099 a6be b61d debe 1746 7abd 55c9 65bf
000002d0: 4b2d 0c3d 06f1 a53e bf1f c4bd c741 58be
000002e0: 36ad 7a3d 856d 9b3e 674c d63d 8ce7 edbd
000002f0: e0b8 903d bd2e 0d3e 4938 f1bd 32f2 8abd
00000300: fbd0 f5bd a8cd 123d 2b71 9b3d c202 813d
00000310: f8b6 28be 88ee a9bd 4791 7a3d 2956 0dbe
00000320: deb5 79bd 4ea5 91bd a0ef e6be 5fff 453d
00000330: f860 9dbe 73bf 1e3d 2e44 b2bd 299b 48be
00000340: 4ebf ae3d fd20 883d 0beb d53d 5110 bdbd
00000350: aeae 81be 936c 82bc 5b85 a0bd 89ac 633d
00000360: 5082 933d f7ac 27be 2704 8f3d c209 4cbd
00000370: ec58 bfbd f692 963c f14f 92be 030d afbe
00000380: 3f4b 0b3e e471 c43d 6cd2 4d3d 5edd 883b
00000390: afb6 81be a504 d73d 37b7 9f3d f561 bdbd
000003a0: 1721 8bbf 0545 d73c 8794 fcbd 8871 793e
000003b0: dc29 fabd eaf0 b03e 5b6c 133e 7dce e2bd
000003c0: 79cc 2b3d 7ad5 a4bf 340c 3f3d fea6 98be
000003d0: 558f 0fbd 86a6 8bbd cb0f 8c3b 0310 8ebd
000003e0: a661 bc3d 8618 a3be 45f4 913d f723 a73d
000003f0: 0ce9 b9bc 15fb 47bc a67f f3bd 53b3 e7bd

decoder.6.bias f4 [26]
-0.12742922 -0.030842429 0.03285567 0.05479585 -0.021222908 -0.22152379 0.12063562 0.09753889
-0.12181154 0.056693796 -0.10165586 0.003334907 0.22474281 0.059395783 0.13977598 -0.017713273
0.060345814 -0.015216163 0.056663908 0.076819435 0.006668925 -0.042702287 -0.15576036 0.16752085
0.07290888 -0.004712776
00000000: ce7c 02be 43a9 fcbc ab93 063d 9d71 603d
00000010: aadb adbc 22d7 62be cf0f f73d 78c2 c73d
00000020: 5478 f9bd c137 683d f330 d0bd 758e 5a3b
00000030: fb22 663e fe48 733d 6f21 0f3e 6d1b 91bc
00000040: 2c2d 773d 374d 79bc 6a18 683d 8253 9d3d
00000050: ff86 da3b 98e8 2ebd a57f 1fbe 968a 2b3e
00000060: 4051 953d a16d 9abb
